models/E_pytorch_course_computer_vision_model.pth (torch, 35754 bytes, 10 tensors)

conv_block1.0.weight f4 [10, 1, 3, 3]
0.294069 0.28658056 -0.38507596 0.23342302 0.19154781 0.023435341 -0.3706686 0.14338006
0.30673042 -0.22888277 0.41539794 -0.09889111 0.26795605 0.42103702 0.15144637 -0.27796584
0.32127532 0.040362574 -0.3900679 -0.12113935 0.07963717 -0.6389681 -0.6480941 0.1367273
-0.74403876 -0.5559363 -0.12206725 -0.68285567 -0.9726716 -0.6178652 0.16664758 -0.81779575
0.18725708 0.27236217 -0.1024302 0.44150537 0.031943772 0.2803163 -0.0567639 -0.15619618
0.13679647 -0.1999862 -0.00024037197 0.27173215 0.0697113 -0.14649358 0.18918702 0.0543548
0.17709689 -0.2010136 -0.33268088 -0.12625751 -0.2526561 0.27049506 0.19239154 0.20107354
0.04155524 0.15092097 0.3266716 -0.3717603 -0.28517345 -0.57989967 -0.33876738 -0.05539889
0.20417595 -0.3197905 0.2849012 -0.26119003 -0.4222773 -0.18844543 0.44103512 0.16067272
0.67412907 -0.34762448 -0.57517135 -0.14636815 -0.45031402 -0.034379333 0.3443567 0.45249605
-0.063950874 -0.22709157 0.1768647 -0.13453919 0.20230918 -0.07967697 0.19058125 -0.25928473
-0.16819927 0.10220617
00000000: 3690 963e b0ba 923e ad28 c5be 7206 6f3e
00000010: 1c25 443e 79fb bf3c 46c8 bdbe 39d2 123e
00000020: c50b 9d3e 3f60 6abe 0aaf d43e 6c87 cabd
00000030: 8931 893e 2a92 d73e c214 1b3e 8a51 8ebe
00000040: 337e a43e 3a53 253d fbb6 c7be e817 f8bd
00000050: d018 a33d 6a93 23bf 7fe9 25bf 3e02 0c3e
00000060: 5379 3ebf d751 0ebf 65fe f9bd a1cf 2ebf
00000070: 0201 79bf 6a2c 1ebf aaa5 2a3e 105b 51bf
00000080: 52c0 3f3e 0e73 8b3e edc6 d1bd fe0c e23e
00000090: 79d7 023d 9e85 8f3e 4381 68bd e4f1 1fbe
000000a0: 6014 0c3e 2fc9 4cbe 5c0c 7cb9 7a20 8b3e
000000b0: ccc4 8e3d 6a02 16be 3eba 413e 24a3 5e3d
000000c0: e358 353e 82d6 4dbe 2655 aabe a649 01be
000000d0: 245c 81be 547e 8a3e 4a02 453e 39e6 4d3e
000000e0: d435 2a3d 078b 1a3e 8041 a73e 5e57 bebe
000000f0: 4102 92be 4e74 14bf eb72 adbe f2e9 62bd
00000100: 8013 513e 95bb a3be 92de 913e b3ba 85be
00000110: bb34 d8be d7f7 40be 5bcf e13e 6487 243e
00000120: b993 2c3f d6fb b1be 6e3e 13bf 88e1 15be
00000130: 8f8f e6be 58d1 0cbd 854f b03e 90ad e73e
00000140: adf8 82bd b18a 68be 051c 353e a4c4 09be
00000150: 232a 4f3e ae2d a3bd bb27 433e f8c0 84be
00000160: 6e3c 2cbe 7851 d13d

conv_block1.0.bias f4 [10]
0.05611172 -0.027100554 0.20561877 0.22028124 -0.2668738 -0.18084577 0.12095381 -0.046449218
-0.10921786 -0.32204103
00000000: 67d5 653d fb01 debc ba8d 523e 6891 613e
00000010: afa3 88be a22f 39be a2b6 f73d 8941 3ebd
00000020: 9dad dfbd 90e2 a4be

conv_block1.2.weight f4 [10, 10, 3, 3]
0.14706494 0.07393653 -0.015072099 -0.06387735 -0.14524044 -0.2411175 -0.1414211 -0.24141578
-0.2598729 -0.049571957 0.031017957 -0.078163914 -0.14729415 -0.2981155 -0.3064749 -0.09792491
-0.20771532 -0.33941126 0.030345455 -0.00494961 0.14093317 0.1394485 0.22937112 0.16507742
0.056723326 0.084094964 0.17263713 -0.16095044 -0.009642035 -0.14281866 0.041922268 0.02031802
-0.05652336 0.1345426 0.003694525 0.07463277 -0.121897995 -0.15005071 -0.017647 -0.028394938
0.023319056 -0.113634355 0.097067416 -0.08979854 -0.043201625 0.023615936 0.0549765 0.08381508
0.09583588 -0.08332275 0.027781364 -0.04520162 -0.012704165 -0.07787339 0.209106 -0.02628802
0.029867414 0.0735412 0.033375032 -0.045735274 0.024231656 -0.008248864 -0.009213664 -0.076672934
0.052262977 -0.0070140827 -0.026798269 0.09217273 0.022004316 -0.015490944 -0.06984959 -0.021404926
0.05576904 -0.007701934 -0.045928296 -0.01239243 -0.03268872 0.054412633 0.10655711 -0.07371503
-0.010501988 0.054456018 0.019058645 -0.037549235 0.055017825 0.055393953 0.039415833 -0.018522665
-0.027912505 0.011271308 -0.004229859 -0.24980982 -0.19745862 0.2801214 -0.030958269 0.027226245
0.048305154 0.05510711 0.16266966 0.008240574 -0.30570397 -0.1432835 0.1308954 0.011084442
0.1255595 -0.10142156 -0.07131413 0.006205973 -0.037392706 0.033716474 0.1018175 0.023769775
-0.13050388 -0.0944889 -0.011569413 0.050385427 -0.022455683 0.23308489 0.3156879 0.21515135
-0.026657643 0.1366832 0.051716138 -0.05748757 -0.051515747 0.17915514 0.043891747 -0.060189273
-0.17621969 -0.11423683 -0.15783787 0.009300897 0.11586015 0.10327103 0.08111326 0.026963731
-0.000474821 -0.08026328 -0.08971478 -0.09900158 0.04408741 -0.051872965 -0.021040725 -0.060206316
-0.05219105 -0.11273849 -0.13324007 0.05196177 -0.03734471 0.029888779 -0.0023299442 -0.0821151
-0.04520142 0.051435374 0.015220187 -0.13987562 0.07671885 -0.075504996 0.009371942 0.088680886
0.082026295 -0.09731517 0.17553453 0.06507188 0.05585879 0.15046391 0.0011315155 -0.0050860816
0.0660684 -0.005554322 0.085275844 -0.10468959 0.065417774 0.078837305 0.09961009 -0.024917452
-0.08676531 0.02370698 0.058169585 -0.105019875 -0.025736475 -0.06560113 -0.012512015 -0.05369322
-0.047520928 -0.036145788 -0.09877102 0.082529634 0.080650695 -0.016612247 -0.012363841 -0.045655586
-0.09477836 -0.10374012 0.034154534 -0.055828135 -0.06833644 -0.017100684 -0.038022462 -0.03724922
0.0010141073 -0.025502853 -0.039001532 -0.05239206 -0.088525265 0.08469842 -0.04192304 0.02594376
-0.03925874 0.006790519 0.097266935 0.043874253 -0.0899593 0.039692666 0.092330195 0.028352132
0.07065115 0.10391613 -0.016260142 0.022157626 -0.073295616 -0.02233276 0.07738483 0.05392434
-0.06940482 -0.084526114 -0.072032854 -0.104035035 -0.08133789 -0.026259564 0.07127727 0.017622434
-0.0802468 -0.084555514 0.05110189 -0.079328865 -0.013807597 0.04889672 -0.04957325 -0.012085142
-0.010738686 -0.024796236 -0.053574894 -0.09396376 -0.085207954 -0.056469947 0.102731995 -0.051018685
-0.0718025 0.026152253 0.030190786 0.055271454 0.080106676 0.05857849 -0.10449441 0.011033778
00000000: 3198 163e 096c 973d f7f0 76bc 21d2 82bd
00000010: e9b9 14be 82e7 76be b1d0 10be b335 77be
00000020: 100e 85be f70b 4bbd 5f19 fe3c 6714 a0bd
00000030: 47d4 16be 98a2 98be 47ea 9cbe db8c c8bd
00000040: 53b3 54be 50c7 adbe 0897 f83c 5730 a2bb
00000050: c950 103e 96cb 0e3e 43e0 6a3e 0e0a 293e
00000060: b856 683d fb39 ac3d cac7 303e 31d0 24be
00000070: a0f9 1dbc 0e3f 12be afb6 2b3d fa71 a63c
00000080: 0a85 67bd 89c5 093e d81f 723b 11d9 983d
00000090: a8a5 f9bd e5a6 19be 7190 90bc 809c e8bc
000000a0: 9b07 bf3c 21b9 e8bd 48cb c63d 4ce8 b7bd
000000b0: 30f4 30bd 3576 c13c 0a2f 613d 3ea7 ab3d
000000c0: 9a45 c43d 1ea5 aabd be95 e33c 5525 39bd
000000d0: 2125 50bc 157c 9fbd e21f 563e f959 d7bc
000000e0: 82ac f43c c59c 963d 42b4 083d e954 3bbd
000000f0: 7781 c63c 3e26 07bc e8f4 16bc b306 9dbd
00000100: b411 563d 64d6 e5bb 0b88 dbbc 0ec5 bc3d
00000110: 6542 b43c bacd 7dbc 4d0d 8fbd 6259 afbc
00000120: 146e 643d 8160 fcbb 4f1f 3cbd 9e09 4bbc
00000130: 9be4 05bd c8df 5e3d 9d3a da3d e8f7 96bd
00000140: 8810 2cbc 460d 5f3d e020 9c3c 3acd 19bd
00000150: 5f5a 613d c5e4 623d 7f72 213d d8bc 97bc
00000160: c4a8 e4bc 4bab 383c a19a 8abb 25ce 7fbe
00000170: 9832 4abe 126c 8f3e 329c fdbc 9309 df3c
00000180: a0db 453d feb7 613d e092 263e 7903 073c
00000190: 3b85 9cbe e9b8 12be 7209 063e 859b 353c
000001a0: ab92 003e 1bb6 cfbd 250d 92bd 7a5b cb3b
000001b0: 1829 19bd 491a 0a3d b285 d03d d5b8 c23c
000001c0: cfa2 05be 6583 c1bd a38d 3dbc f360 4e3d
000001d0: fbf4 b7bc cead 6e3e d8a1 a13e a350 5c3e
000001e0: 2161 dabc aef6 0b3e 4dd4 533d 1678 6bbd
000001f0: 2d02 53bd 7274 373e d5c7 333d 0789 76bd
00000200: ef72 34be 00f5 e9bd 40a0 21be ca62 183c
00000210: 1648 ed3d c37f d33d b51e a63d 0be3 dc3c
00000220: 65f1 f8b9 1361 a4bd 62bc b7bd 57c1 cabd
00000230: 0095 343d bf78 54bd 995d acbc e69a 76bd
00000240: 48c6 55bd 70e3 e6bd 1670 08be ddd5 543d
00000250: c4f6 18bd 50d9 f43c fab1 18bb f62b a8bd
00000260: 2025 39bd e6ad 523d 175e 793c 8e3b 0fbe
00000270: c61e 9d3d 5da2 9abd c68c 193c 539e b53d
00000280: 67fd a73d 2d4d c7bd 53bf 333e 6844 853d
00000290: 30cc 643d 3613 1a3e 5c4f 943a 25a9 a6bb
000002a0: df4e 873d 0801 b6bb 1aa5 ae3d 7f67 d6bd
000002b0: c1f9 853d 7475 a13d 6000 cc3d af1f ccbc
000002c0: 03b2 b1bd 2435 c23c 3b43 6e3d a914 d7bd
000002d0: 4dd5 d2bc e359 86bd 32ff 4cbc 6ced 5bbd
000002e0: 4ea5 42bd 9b0d 14bd 7648 cabd 4c05 a93d
000002f0: 312c a53d 6816 88bc b591 4abc 5a01 3bbd
00000300: 281b c2bd b375 d4bd a0e5 0b3d 0bac 64bd
00000310: faf3 8bbd bc16 8cbc 71bd 1bbd a392 18bd
00000320: cbeb 843a 5ceb d0bc 12c0 1fbd 0f99 56bd
00000330: bc4c b5bd 5d76 ad3d 7eb7 2bbd 0288 d43c
00000340: c6cd 20bd 0183 de3b e333 c73d 7db5 333d
00000350: 953c b8bd c794 223d 9d17 bd3d bb42 e83c
00000360: 8db1 903d fbd1 d43d fd33 85bc e983 b53c
00000370: 031c 96bd 31f3 b6bc f07b 9e3d c5df 5c3d
00000380: 1d24 8ebd 071c adbd f685 93bd 5210 d5bd
00000390: 7b94 a6bd 4c1e d7bc d1f9 913d ec5c 903c
000003a0: 6f58 a4bd 712b adbd 3750 513d 2c77 a2bd
000003b0: 4239 62bc ed47 483d 520d 4bbd c200 46bc
000003c0: 50f1 2fbc 7a21 cbbc 5971 5bbd 1270 c0bd
000003d0: 8281 aebd 084d 67bd 2765 d23d f8f8 50bd
000003e0: 300d 93bd 403d d63c ab52 f73c 5264 623d
000003f0: f80e a43d 00f0 6f3d 2a01 d6bd 05c7 343c

conv_block1.2.bias f4 [10]
0.40390247 0.0023861413 -0.06649614 0.41532183 -0.11805807 0.054555085 0.2143391 0.29973722
0.07068377 0.027546018
00000000: 4ecc ce3e cf60 1c3b 212f 88bd 10a5 d43e
00000010: 6ec8 f1bd 2775 5f3d b67b 5b3e 2877 993e
00000020: a7c2 903d 30a8 e13c

conv_block2.0.weight f4 [10, 10, 3, 3]
0.007456482 -0.09439549 -0.07933776 0.02022226 0.051330548 0.084110245 -0.05461681 0.07950914
0.089135386 0.040519927 -0.10233304 -0.048796367 -0.11273967 -0.07283152 0.048607066 0.020820634
0.057928264 -0.07566049 0.016085332 -0.06374706 0.05269361 -0.046015076 -0.026378747 -0.09134018
0.0003457967 0.10011606 0.051104046 -0.075119175 -0.028722622 -0.04045021 -0.10277769 0.039280713
-0.032689497 0.061326537 -0.09432154 -0.09646734 0.018815443 0.037000384 0.016936194 -0.041150983
0.1003067 -0.018658273 -0.053580735 -0.058029562 0.09880321 -0.008601979 -0.027042136 -0.054290146
-0.034368783 -0.09919314 -0.088705525 0.038720228 0.07033278 0.084811464 -0.09090077 0.03938467
-0.08756291 0.05444532 0.044114705 0.059590165 0.13035703 0.0518402 -0.019917374 0.03806831
-0.05384735 0.02977884 -0.04227387 -0.01933319 -0.101346605 -0.01495857 -0.08493759 -0.05528893
-0.07438124 -0.10540219 -0.013885038 0.080264136 0.07655533 0.041572314 -0.008797674 -0.12082403
0.01988046 0.033033203 -0.09385464 0.03267025 0.054958057 -0.0013691146 -0.058875073 0.045435436
0.029588267 0.06903758 0.009576426 -0.029768022 -0.16928682 0.38764107 -0.1070823 -0.04545368
0.25228262 0.09471713 0.019345654 -0.18661746 -0.050334968 -0.053905666 -0.13563216 -0.019881621
0.02716706 0.13099141 -0.023445906 0.14729735 0.063324444 0.037339266 -0.053430177 -0.08626753
0.0035767145 -0.061814077 0.086395234 -0.101503015 0.047191612 0.15706654 0.40338263 0.24999994
-0.4089621 0.29964203 0.2733054 -0.7391185 -0.20443617 -0.03820625 -0.08961414 -0.026271444
0.05769242 -0.24105981 -0.060183104 0.07466172 -0.055118665 -0.055143345 0.010852412 0.24533777
0.083631724 0.051608168 0.07892102 0.088263094 -0.049194563 -0.18982731 -0.08640296 -0.013756583
-0.37880278 -0.046318382 0.19758336 -0.30840126 -0.096049465 0.44774866 -0.21168056 0.061142538
0.007956378 -0.010528147 0.014252716 0.23646227 -0.2654097 0.14933407 0.19308108 -0.32597443
-0.08460852 0.0033510884 -0.32328138 -0.1356702 0.2468726 -0.3479047 -0.14388162 0.39153963
-0.16055673 -0.045171436 0.11443049 -0.08027916 -0.20842496 -0.16295324 0.11074582 0.07928
-0.04665087 0.034178015 0.21961646 0.2542514 -0.05809796 0.07152547 0.0718377 -0.102557816
-0.09078475 -0.08781892 -0.07672052 -0.0563341 -0.020174036 -0.03492673 -0.05770014 -0.03609754
-0.0449683 0.09849197 -0.036420733 -0.07868869 0.043500967 0.0039758366 0.080690846 0.06587251
0.09685174 -0.07719849 0.067782536 0.08846535 -0.05205639 0.09690571 0.07903235 -0.0059462665
0.038001824 -0.04354713 -0.08890994 -0.00018964574 -0.00313946 -0.12148368 -0.00977766 -0.16653435
0.10833897 0.09886462 0.0393586 -0.057002693 0.06218814 0.035538808 0.010726555 0.02161833
0.058718387 -0.050625253 -0.045780625 0.014723172 0.003620759 0.06835387 -0.060134996 -0.020602483
-0.004345999 -0.06907019 0.085232966 -0.003478459 -0.07468856 0.006573371 -0.04806567 0.025226321
-0.0421437 -0.12902197 -0.041087255 -0.012484038 -0.051123258 0.09434466 -0.009342077 0.063232444
0.030535473 -0.11281549 -0.0016886524 0.050347883 -0.048127964 -0.08309199 0.13631788 0.10443256
00000000: 8155 f43b 6c52 c1bd d67b a2bd 27a9 a53c
00000010: fb3f 523d fe41 ac3d e0b5 5fbd b0d5 a23d
00000020: 9d8c b63d 39f8 253d fc93 d1bd b3de 47bd
00000030: 0ee4 e6bd b128 95bd 3418 473d 0990 aa3c
00000040: 3046 6d3d e3f3 9abd 63c5 833c d28d 82bd
00000050: 41d5 573d 4e7a 3cbd 3e18 d8bc 8f10 bbbd
00000060: 0c4c b539 a609 cd3d 7a52 513d 15d8 99bd
00000070: b44b ebbc 1faf 25bd 1c7d d2bd d0e4 203d
00000080: 6ce5 05bd 8931 7b3d a72b c1bd ab90 c5bd
00000090: d822 9a3c b78d 173d c6bd 8a3c ef8d 28bd
000000a0: 996d cd3d 3cd9 98bc 7977 5bbd 68b0 6dbd
000000b0: 5659 ca3d 51ef 0cbc 7887 ddbc 585f 5ebd
000000c0: 48c6 0cbd c625 cbbd 3eab b5bd 1a99 1e3d
000000d0: a20a 903d a2b1 ad3d 2f2a babd d251 213d
000000e0: 2f54 b3bd 0e02 5f3d 9fb1 343d d114 743d
000000f0: 507c 053e 6456 543d c329 a3bc 84ed 1b3d
00000100: 0a8f 5cbd c1f2 f33c 5e27 2dbd a360 9ebc
00000110: cf8e cfbd ca14 75bc c2f3 adbd a576 62bd
00000120: 3155 98bd 1add d7bd 127e 63bc 8661 a43d
00000130: 0ac9 9c3d bb47 2a3d 1f24 10bc 9772 f7bd
00000140: 59dc a23c d34d 073d dd36 c0bd 3dd1 053d
00000150: b31b 613d dd73 b3ba fd26 71bd 821a 3a3d
00000160: 1863 f23c 9363 8d3d 71e6 1c3c 11dc f3bc
00000170: 8659 2dbe e478 c63e f74d dbbd a32d 3abd
00000180: 302b 813e 0efb c13d c77a 9e3c a618 3fbe
00000190: 0a2c 4ebd 30cc 5cbd 28e3 0abe c8de a2bc
000001a0: 748d de3c 9d22 063e a111 c0bc 1ed5 163e
000001b0: 3fb0 813d 0ff1 183d 9ad9 5abd 08ad b0bd
000001c0: 5067 6a3b c230 7dbd fcef b03d d0e0 cfbd
000001d0: fe4b 413d 0dd6 203e 2b88 ce3e fcff 7f3e
000001e0: 7b63 d1be ae6a 993e afee 8b3e df36 3dbf
000001f0: b757 51be 287e 1cbd 9e87 b7bd 3637 d7bc
00000200: e34e 6c3d 62d8 76be 8f82 76bd 3ee8 983d
00000210: 1cc4 61bd fddd 61bd 51ce 313c d339 7b3e
00000220: 1c47 ab3d 1663 533d 58a1 a13d 48c3 b43d
00000230: 3d80 49bd 1762 42be 09f4 b0bd 4b63 61bc
00000240: 70f2 c1be 58b8 3dbd 4b53 4a3e c5e6 9dbe
00000250: 95b5 c4bd 503f e53e cac2 58be 9970 7a3d
00000260: 785b 023c 407e 2cbc 3984 693c 2a23 723e
00000270: c8e3 87be 08eb 183e 0cb7 453e 1fe6 a6be
00000280: 3b47 adbd ef9d 5b3b 2385 a5be 21ed 0abe
00000290: 2ccc 7c3e 9120 b2be b455 13be e277 c83e
000002a0: fc68 24be af05 39bd 885a ea3d 6669 a4bd
000002b0: 5a6d 55be 37dd 26be b4ce e23d 8d5d a23d
000002c0: fc14 3fbd 3ffe 0b3d 23e3 603e 3d2d 823e
000002d0: 20f8 6dbd f27b 923d a51f 933d d509 d2bd
000002e0: 5bed b9bd 68da b3bd a61f 9dbd 96be 66bd
000002f0: 0544 a5bc 550f 0fbd fb56 6cbd 04db 13bd
00000300: ae30 38bd 28b6 c93d e82d 15bd 8927 a1bd
00000310: 122e 323d bc47 823b 3e41 a53d 2be8 863d
00000320: 345a c63d 3e1a 9ebd 92d1 8a3d 522d b53d
00000330: 1539 55bd 8076 c63d b6db a13d e6d8 c2bb
00000340: cda7 1b3d 7a5e 32bd 6a16 b6bd a4db 46b9
00000350: 66bf 4dbb 70cc f8bd 7a32 20bc fb87 2abe
00000360: d2e0 dd3d 8979 ca3d 7c36 213d a87b 69bd
00000370: feb8 7e3d 2491 113d 6fbe 2f3c ed18 b13c
00000380: b182 703d 6d5c 4fbd 7784 3bbd 7639 713c
00000390: 414a 6d3b 1dfd 8b3d 1d50 76bd 8ac6 a8bc
000003a0: e268 8ebb ac74 8dbd 9f8e ae3d dcf6 63bb
000003b0: 51f6 98bd 6f65 d73b 82e0 44bd 6ea7 ce3c
000003c0: df9e 2cbd 561e 04be 1c4b 28bd da89 4cbc
000003d0: 9f66 51bd c637 c13d 830f 19bc 0380 813d
000003e0: 8725 fa3c cf0b e7bd c655 ddba 9539 4e3d
000003f0: d421 45bd 222c aabd ea96 0b3e bde0 d53d

conv_block2.0.bias f4 [10]
-0.050995644 -0.15175152 -0.031631377 0.045053363 -0.07958124 -0.006392097 -0.020560414 0.31270024
0.47226137 0.14374645
00000000: cfe0 50bd c064 1bbe e78f 01bd e089 383d
00000010: 7dfb a2bd cc74 d1bb 506e a8bc 3f1a a03e
00000020: 3ecc f13e 4532 133e

conv_block2.2.weight f4 [10, 10, 3, 3]
-0.10518167 -0.106960505 -0.034660634 -0.045132045 0.04534705 -0.011089123 0.03024726 -0.04753738
0.07567 0.060907684 -0.104544625 -0.1771919 -0.10403261 -0.00012393687 -0.3802464 -0.08622336
0.27771088 -0.09979483 0.07064101 0.0065483474 0.08094394 -0.06152434 0.064423256 -0.012796255
0.014990117 0.08206826 -0.09895936 -0.061922744 0.33340734 -0.18828343 -0.40703258 -0.06521334
-0.06640867 -0.2664689 0.040623847 0.2931018 -0.0864668 0.07437463 0.22673097 -0.07557853
-0.05595105 -0.019193403 -0.12361027 -0.1556795 -0.19895412 -0.07517688 -0.049408473 0.09795956
-0.02326503 0.03357971 0.07038303 -0.012575797 -0.06051451 -0.07309349 -0.036517598 0.037449576
-0.09125838 -0.004896509 0.0375074 0.08563306 0.04176049 0.02931476 0.0797117 -0.21103714
-0.048595387 -0.45078 -0.42865613 -0.34034124 -0.26232287 0.40825656 0.36188605 0.32131946
-0.100063704 -0.3330903 -0.16094045 0.2560303 0.22896652 0.44602308 -0.2731194 -0.3533712
-0.4005868 -0.08302598 -0.014785918 -0.15525353 0.0021364642 -0.10723817 -0.03954102 0.033674933
-0.091882765 -0.07691799 0.055094577 -0.014714702 -0.042889446 -0.08809779 -0.017829046 -0.10003295
0.09183114 -0.04755667 -0.036247533 0.10232341 0.025336273 -0.162333 0.17798321 -0.144588
-0.0134313805 -0.0071688634 -0.38550285 0.10832612 0.037328284 0.026159089 0.08394789 0.09281509
-0.023389326 -0.01646342 -0.040368605 -0.077233836 -0.06884162 -0.09621842 0.1396187 0.03126674
-0.1179845 -0.35887605 0.09083899 0.019823158 -0.3042715 0.24500233 -0.08043601 -0.06348425
-0.059074685 0.098696195 -0.26760966 0.029056499 0.23506962 -0.2618869 -0.23736507 -0.007980632
0.03537065 0.056624454 -0.06490891 -0.10131834 0.00024326537 -0.021450642 0.028536994 -0.026920876
0.084489144 0.015148484 0.08472671 -0.075420104 0.04540072 0.015771907 -0.053838592 0.049249336
-0.104628466 -0.097246066 -0.08617622 0.21171162 -0.13727024 -0.37277448 0.49107412 0.09714822
-0.750126 0.3348203 -0.11934276 -0.118477546 -0.23953167 0.15985128 0.19892246 -0.5137041
-0.18593457 0.22338724 -0.06900569 -0.11408772 0.009922111 0.1907299 -0.19890723 -0.16491434
0.06317023 -0.100867696 -0.1373003 -0.0920555 0.07690141 0.022787325 -0.024949221 -0.05083303
-0.034692954 0.043202344 -0.0036511119 0.0828025 -0.013739706 -0.44084963 -0.45436543 -0.11942714
-0.12263236 -0.0070033767 -0.013346648 -0.20015903 0.13513142 0.30780312 -0.015128047 -0.009050524
-0.026229495 0.017119257 0.03882957 0.04509741 0.027919056 -0.07142453 0.07819847 -0.3241481
0.43726167 -0.24250032 0.4996779 0.38452512 -0.24295135 -0.3368784 -0.25809038 0.039146338
0.062058892 -0.12314383 -0.16695264 -0.090994745 0.05572333 -0.17612728 -0.013051353 0.06680265
0.04973336 0.08354787 0.0038246468 -0.115210325 0.09524767 0.01740206 -0.0002500907 -0.09056109
-0.010008237 -0.04606542 0.07385833 0.049042683 0.052355625 0.04497912 -0.08721309 -0.06845489
-0.07351771 -0.069109686 0.053414457 -0.87201667 0.37905625 0.3704719 -0.58417076 0.1315495
0.059404433 0.18036869 -0.21641569 -0.18026553 -0.03599412 -0.27071255 -0.0559626 -0.13589448
00000000: 7d69 d7bd 1c0e dbbd 4ff8 0dbd 61dc 38bd
00000010: d4bd 393d 27af 35bc 1ac9 f73c 8eb6 42bd
00000020: dff8 9a3d 567a 793d 7e1b d6bd cb71 35be
00000030: 0d0f d5bd 0df5 01b9 a8af c2be df95 b0bd
00000040: 1f30 8e3e 3b61 ccbd 3cac 903d 8593 d63b
00000050: f0c5 a53d f200 7cbd 57f0 833d 62a7 51bc
00000060: 1c99 753c 6713 a83d 34ab cabd b4a2 7dbd
00000070: 5eb4 aa3e 5fcd 40be 9366 d0be 928e 85bd
00000080: 4501 88bd 9d6e 88be 3165 263d 7011 963e
00000090: 8115 b1bd ba51 983d 2a2c 683e ebc8 9abd
000000a0: ee2c 65bd 7c3b 9dbc 6227 fdbd 726a 1fbe
000000b0: a1ba 4bbe 56f6 99bd 8a60 4abd 069f c83d
000000c0: 4e96 bebc e18a 093d fa24 903d b70a 4ebc
000000d0: 10de 77bd 0ab2 95bd 7a93 15bd ba64 193d
000000e0: ace5 babd e572 a0bb 5ca1 193d 6360 af3d
000000f0: 0c0d 2b3d 8225 f03c e33f a33d 1f1a 58be
00000100: f50b 47bd a3cc e6be d178 dbbe 3541 aebe
00000110: 2f4f 86be 0107 d13e 2149 b93e fc83 a43e
00000120: 33ee ccbd d08a aabe 93cd 24be 6716 833e
00000130: 3376 6a3e 235d e43e 4ed6 8bbe 12ed b4be
00000140: b719 cdbe 8609 aabd a340 72bc c8fa 1ebe
00000150: ec03 0c3b b09f dbbd c4f5 21bd baee 093d
00000160: 082d bcbd 2e87 9dbd daaa 613d ef15 71bc
00000170: d8ac 2fbd 9d6c b4bd 380e 92bc 13de ccbd
00000180: f711 bc3d c8ca 42bd 4b78 14bd f08e d13d
00000190: 048e cf3c 9f3a 26be 3b41 363e e00e 14be
000001a0: 4b0f 5cbc c9e8 eabb a160 c5be 16da dd3d
000001b0: 8be5 183d 964b d63c dfec ab3d d715 be3d
000001c0: f99a bfbc 4bde 86bc 8d59 25bd c62c 9ebd
000001d0: d6fc 8cbd 2a0e c5bd 34f8 0e3e 8e11 003d
000001e0: dca1 f1bd 9abe b7be cb09 ba3d 2d64 a23c
000001f0: 79c9 9bbe e4e1 7a3e a3bb a4bd 0804 82bd
00000200: 4cf8 71bd 3b21 ca3d 2204 89be e507 ee3c
00000210: 17b6 703e 0a16 86be d40f 73be 32c1 02bc
00000220: d1e0 103d 0bef 673d f6ee 84bd fd7f cfbd
00000230: 0d15 7f39 42b9 afbc 6ac6 e93c 2b89 dcbc
00000240: a508 ad3d 5931 783c 3385 ad3d db75 9abd
00000250: 1bf6 393d 1634 813c db85 5cbd acb9 493d
00000260: 7347 d6bd f228 c7bd 287d b0bd eeca 583e
00000270: 9290 0cbe 4cdc bebe 116e fb3e a5f5 c63d
00000280: 4208 40bf 916d ab3e fa69 f4bd 5ba4 f2bd
00000290: ca47 75be 0eb0 233e 54b2 4b3e 1d82 03bf
000002a0: a265 3ebe a0bf 643e db52 8dbd d3a6 e9bd
000002b0: 5a90 223c b34e 433e 56ae 4bbe 4edf 28be
000002c0: 655f 813d b993 cebd 7398 0cbe 9887 bcbd
000002d0: 7d7e 9d3d 7cac ba3c 4f62 ccbc 4c36 50bd
000002e0: 331a 0ebd f1f4 303d 7e47 6fbb 5b94 a93d
000002f0: 811c 61bc 0bb7 e1be 96a2 e8be 3796 f4bd
00000300: ad26 fbbd 957c e5bb e6ab 5abc 7df6 4cbe
00000310: e45f 0a3e 5f98 9d3e a1db 77bc a648 14bc
00000320: 3ddf d6bc af3d 8c3c c10b 1f3d 10b8 383d
00000330: 81b6 e43c 0647 92bd 8526 a03d bdf6 a5be
00000340: c3e0 df3e 0152 78be c8d5 ff3e 7ae0 c43e
00000350: 3dc8 78be 537b acbe 6c24 84be e957 203d
00000360: 7731 7e3d d532 fcbd a2f5 2abe 745b babd
00000370: 253e 643d b65a 34be 58d5 55bc d4cf 883d
00000380: 35b5 4b3d 251b ab3d eda6 7a3b 64f3 ebbd
00000390: 3611 c33d c48e 8e3c 9b1e 83b9 1878 b9bd
000003a0: 97f9 23bc 18af 3cbd 0943 973d fbe0 483d
000003b0: da72 563d 073c 383d c79c b2bd 1432 8cbd
000003c0: 7490 96bd 6189 8dbd 1ec9 5a3d 7c3c 5fbf
000003d0: a913 c23e 7eae bd3e 378c 15bf eab4 063e
000003e0: 1052 733d 92b2 383e 139c 5dbe 8797 38be
000003f0: 926e 13bd d69a 8abe 0a39 65bd ec27 0bbe

conv_block2.2.bias f4 [10]
0.5042444 0.16031475 0.21894807 -0.1335639 -0.24239916 0.12252625 -0.1477788 -0.067298494
-0.030300027 -0.22106422
00000000: 2916 013f 8d29 243e ec33 603e fac4 08be
00000010: 7c37 78be 0bef fa3d 5353 17be cbd3 89bd
00000020: c337 f8bc a95e 62be

classifier.1.weight f4 [10, 490]
0.055601433 0.17116542 0.09277705 0.019731922 0.026437985 0.15660186 0.14610766 0.024768874
0.0053989864 0.25441393 0.28369355 0.02890165 0.029233659 -0.034108877 -0.07628401 0.006694825
0.097376116 0.11307438 0.03736103 0.027714984 -0.055336438 -0.09541465 -0.0926149 0.06154854
-0.009011748 -0.034002513 -0.04252734 -0.048939142 -0.11380524 -0.052769415 -0.0020432377 0.014250716
0.036999293 -0.0029563946 -0.085418604 -0.060763825 0.010786144 0.025712537 0.071176514 -0.115316816
-0.06924679 0.015844395 0.03345311 -0.047830418 0.02863197 -0.054117624 -0.072046 -0.07273826
0.0068462356 0.18036024 0.11386471 -0.13914222 -0.1605422 0.02502638 -0.140788 0.09351358
0.13125817 -0.09115414 -0.21131185 -0.12777619 0.01785443 0.16727772 -0.03234888 0.12426489
0.22758591 0.018502047 -0.08424914 -0.03272662 0.17714489 -0.020053985 0.10842242 0.0007370949
0.11050891 -0.10501599 -0.072636954 0.17287478 -0.1407651 0.03683133 -0.034504727 0.0039300867
-0.04193249 0.14879754 0.14996894 -0.14694242 -0.1693093 0.063313745 -0.19459683 -0.1988723
0.014250623 -0.0010614387 -0.0423971 -0.08540427 -0.048200116 0.10728913 0.0066884304 0.11515697
0.018001137 0.070026375 0.06325091 -0.0068742195 0.2720654 0.18969223 0.15542766 0.044837616
-0.008502658 0.12813117 0.09594139 -0.06858513 0.16699825 -0.00919399 -0.02152697 0.058807902
0.18604034 0.15741514 0.20109528 0.020194085 0.16488715 -0.025396978 -0.03119264 0.030014869
-0.06783987 -0.13590772 -0.15761167 -0.06254667 -0.0659426 -0.06293857 -0.0573683 -0.115260065
0.04503309 -0.05735926 -0.09226682 -0.1214832 0.041766774 0.016449748 -0.0530767 0.11701323
-0.100694254 -0.061074115 -0.018897284 0.05541433 -0.120755814 -0.012792785 0.021637611 -0.20674764
-0.01677594 -0.078146294 -0.06016606 0.20903449 0.00026931608 -0.11789883 -0.058192752 0.056022845
0.053679194 0.0057107364 -0.009374592 -0.074347205 -0.14635074 -0.08500303 0.06815225 -0.16042192
-0.19257258 -0.023730258 0.071058325 -0.103062026 0.13150255 0.05937727 -0.07077218 -0.02500273
0.10629213 0.13475874 0.0009266181 0.03347787 0.064825095 0.07041879 0.16314894 0.006071002
0.06697271 -0.037476216 -0.10923264 -0.092315085 -0.012663192 0.17616783 -0.11341529 0.18922676
-0.036195032 -0.15317386 -0.09063646 -0.09587457 0.16568545 -0.09034701 0.030811392 -0.10538029
-0.10103831 -0.12692395 -0.12602468 0.13164487 0.005828827 0.00013721961 -0.029007733 -0.020863978
0.037058797 -0.0043150615 0.022470703 -0.054210868 0.020631153 -0.0008210769 -0.008801571 0.012979748
-0.0039872155 -0.059934713 0.06112087 0.018721264 -0.017644616 0.02960007 -0.041756902 0.11950178
0.01593139 0.011793359 -0.07245896 -0.044559214 0.015987564 0.040267322 0.11086324 0.0047682812
-0.0012380031 -0.0074599143 -0.0053732796 -0.024688926 -0.039025865 -0.007411185 -0.044511415 0.009328456
-0.023752902 0.023455242 -0.014716123 -0.0088660875 -0.002204831 -0.06404757 -0.04647717 -0.025297023
0.048020814 0.046258047 0.026504854 -0.0067145084 -0.027875518 -0.027014311 -0.08702396 0.27093333
-0.065375075 -0.1054714 0.056382917 0.07114986 0.100086935 0.18783776 -0.038926296 0.008369568
00000000: 54be 633d fd45 2f3e e501 be3d d7a4 a13c
00000010: 7994 d83c 3d5c 203e 3f9d 153e 18e8 ca3c
00000020: fbe9 b03b 8b42 823e 4840 913e 27c3 ec3c
00000030: 6d7b ef3c c0b5 0bbd cb3a 9cbd 4360 db3b
00000040: 216d c73d 8a93 e73d e107 193d 890a e33c
00000050: 76a8 62bd c268 c3bd e1ac bdbd 521a 7c3d
00000060: 03a6 13bc 3846 0bbd 2631 2ebd 6974 48bd
00000070: b912 e9bd be24 58bd d7e7 05bb d67b 693c
00000080: 928c 173d 12c0 41bb f3ef aebd 7de3 78bd
00000090: 5eb8 303c 19a3 d23c fec4 913d 392b ecbd
000000a0: 43d1 8dbd 1bcc 813c 2106 093d d4e9 43bd
000000b0: 988d ea3c 71aa 5dbd da8c 93bd ccf7 94bd
000000c0: 6356 e03b 5bb0 383e e731 e93d 4c7b 0ebe
000000d0: 2d65 24be 1f04 cd3c bb2a 10be 0c84 bf3d
000000e0: 8b68 063e 06af babd 2262 58be c3d7 02be
000000f0: 7443 923c da4a 2b3e 4280 04bd 977e fe3d
00000100: 480c 693e 9b91 973c d08a acbd 590c 06bd
00000110: 7865 353e 4148 a4bc 930c de3d 9a39 413a
00000120: 7f52 e23d a012 d7bd afc2 94bd 1606 313e
00000130: ba24 10be 73dc 163d d454 0dbd f5c7 803b
00000140: 67c1 2bbd 625e 183e 7591 193e 1378 16be
00000150: 6b5f 2dbe a3aa 813d 6444 47be 2ea5 4bbe
00000160: 727b 693c f91f 8bba 95a8 2dbd 6fe8 aebd
00000170: 7c6d 45bd 67ba db3d 9f2a db3b 6bd7 eb3d
00000180: 1f77 933c fd69 8f3d b189 813d 2241 e1bb
00000190: 284c 8b3e ae3e 423e 6e28 1f3e a6a7 373d
000001a0: bc4e 0bbc d134 033e eb7c c43d 5c76 8cbd
000001b0: 9701 2b3e 64a2 16bc 5459 b0bc 8ee0 703d
000001c0: 5c81 3e3e 6f31 213e eceb 4d3e 116e a53c
000001d0: 2dd8 283e 530d d0bc b587 ffbc bee1 f53c
000001e0: a1ef 8abd 652b 0bbe f464 21be 7818 80bd
000001f0: ea0c 87bd f0e5 80bd 06fb 6abd 780d ecbd
00000200: 9e74 383d 8bf1 6abd 63f6 bcbd 2fcc f8bd
00000210: a313 2b3d 9fc1 863c f466 59bd a2a4 ef3d
00000220: ca38 cebd da28 7abd 7ace 9abc 23fa 623d
00000230: d34e f7bd d498 51bc 5c41 b13c a7b5 53be
00000240: b26d 89bc 2a0b a0bd b070 76bd 230d 563e
00000250: fe32 8d39 f174 f1bd 865b 6ebd 3678 653d
00000260: b7de 5b3d 2121 bb3b e497 19bc 5943 98bd
00000270: f8dc 15be 1216 aebd 6893 8b3d a545 24be
00000280: bf31 45be f565 c2bc 0787 913d 2f12 d3bd
00000290: 9ba8 063e 9535 733d 01f1 90bd 86d2 ccbc
000002a0: b0af d93d 32fe 093e 4ae8 723a 1720 093d
000002b0: 05c3 843d ba37 903d 8410 273e 42ef c63b
000002c0: fd28 893d a980 19bd 5db5 dfbd b10f bdbd
000002d0: 4779 4fbc 5765 343e 4746 e8bd a9c4 413e
000002e0: 3e41 14bd 9cd9 1cbe 9c9f b9bd e359 c4bd
000002f0: 72a9 293e da07 b9bd 2c68 fc3c 9fd1 d7bd
00000300: 2ced cebd 5af8 01be 9d0c 01be eacd 063e
00000310: bfff be3b 9ce2 0f39 a0a1 edbc efea aabc
00000320: f7ca 173d 5c65 8dbb 7b14 b83c 370c 5ebd
00000330: aa02 a93c 8a3d 57ba 7734 10bc 02a9 543c
00000340: 30a7 82bb 1a7e 75bd e159 7a3d 565d 993c
00000350: 718b 90bc d97b f23c 4909 2bbd 59bd f43d
00000360: 8c82 823c ef38 413c 5d65 94bd b983 36bd
00000370: 5af8 823c 59ef 243d 440c e33d 3e3f 9c3b
00000380: 7e44 a2ba 4c72 f4bb 5612 b0bb 6e40 cabc
00000390: 96d9 1fbd 87d9 f2bb 9a51 36bd 61d6 183c
000003a0: 7295 c2bc 3525 c03c e51b 71bc 1143 11bc
000003b0: ed7e 10bb 5f2b 83bd d85e 3ebd b43b cfbc
000003c0: 79b1 443d 1479 3d3d b520 d93c 6105 dcbb
000003d0: 335b e4bc 1e4d ddbc 9e39 b2bd c6b7 8a3e
000003e0: 5ee3 85bd 6401 d8bd c6f1 663d 05b7 913d
000003f0: 61fa cc3d 8b58 403e 2e71 1fbd 8320 093c

classifier.1.bias f4 [10]
0.082594864 -0.2054817 0.31124386 -0.020669742 -0.34974802 -0.12541656 0.13449478 0.008012207
0.25228626 -0.12414227
00000000: 7f27 a93d cb69 52be 5b5b 9f3e 9753 a9bc
00000010: 2c12 b3be 336d 00be 00b9 093e a245 033c
00000020: aa2b 813e 4d3e febd
